Using Theano backend.
(31500, 1, 28, 28) (31500, 10)
(10500, 1, 28, 28) (10500, 10)
____________________________________________________________________________________________________
Layer (type)                     Output Shape          Param #     Connected to                     
====================================================================================================
convolution2d_1 (Convolution2D)  (None, 16, 24, 24)    416         convolution2d_input_1[0][0]      
____________________________________________________________________________________________________
maxpooling2d_1 (MaxPooling2D)    (None, 16, 12, 12)    0           convolution2d_1[0][0]            
____________________________________________________________________________________________________
activation_1 (Activation)        (None, 16, 12, 12)    0           maxpooling2d_1[0][0]             
____________________________________________________________________________________________________
convolution2d_2 (Convolution2D)  (None, 8, 10, 10)     1160        activation_1[0][0]               
____________________________________________________________________________________________________
maxpooling2d_2 (MaxPooling2D)    (None, 8, 3, 3)       0           convolution2d_2[0][0]            
____________________________________________________________________________________________________
activation_2 (Activation)        (None, 8, 3, 3)       0           maxpooling2d_2[0][0]             
____________________________________________________________________________________________________
flatten_1 (Flatten)              (None, 72)            0           activation_2[0][0]               
____________________________________________________________________________________________________
dense_1 (Dense)                  (None, 10)            730         flatten_1[0][0]                  
____________________________________________________________________________________________________
activation_3 (Activation)        (None, 10)            0           dense_1[0][0]                    
====================================================================================================
Total params: 2,306
Trainable params: 2,306
Non-trainable params: 0
____________________________________________________________________________________________________
Train on 31500 samples, validate on 10500 samples
Epoch 1/25
31500/31500 [==============================] - 40s - loss: 0.9267 - acc: 0.7209 - val_loss: 0.3155 - val_acc: 0.9076
…
